assets/models/crop_recommendation_model.tflite (tflite, 23704 bytes, 8 tensors)

sequential/dense_1/BiasAdd/ReadVariableOp f4 [44]
0	0x3e7c980c	0.24667376
1	0x3d670f7a	0.056411244
2	0x3eba86b4	0.36430895
3	0x3e44ded0	0.19225621
4	0x3e237c68	0.15965426
5	0x3db4b1f9	0.08823008
6	0x3e8521c7	0.26002333
7	0x3daebfbf	0.085326664
8	0x3e959a84	0.2921945
9	0xbd317b74	-0.043330625
10	0xbd1d1c10	-0.03835684
11	0xbcb65b4b	-0.022260329
12	0x3c9a272e	0.01881751
13	0xbc8e2e25	-0.017355988
14	0xbe0239c1	-0.12717344
15	0x3e5b75fd	0.21431728
16	0xbd8b51bb	-0.06802698
17	0xbd66787c	-0.056267247
18	0x3e182003	0.14855962
19	0x3db2fd2e	0.087396964
20	0xbc8f9789	-0.017528312
21	0x3e133719	0.14376487
22	0x3e0f4ed5	0.13994916
23	0x3dfc098f	0.12306511
24	0x3cccefca	0.025016684
25	0x3e93ee06	0.28892535
26	0xbc8232c8	-0.015893355
27	0xbd7a7e41	-0.06115556
28	0x3e6bd250	0.23029447
29	0x3d023ef9	0.031798337
30	0x3e00ab3f	0.12565325
31	0x3dbf4f3a	0.09341283
32	0x3e43a448	0.19105637
33	0x3c59c800	0.013292313
34	0x3e1d03e1	0.15333511
35	0x3e7e3960	0.24826574
36	0x3e4f4781	0.2024212
37	0x3ea23902	0.31684119
38	0x3d64268d	0.055700827
39	0x3d7b756e	0.061391287
40	0x3d8674dc	0.06565258
41	0x3e1a1e0c	0.15050524
42	0x3deaac0b	0.11458596
43	0x3e18ec9f	0.14934014

sequential/dense_2/BiasAdd/ReadVariableOp f4 [44]
0	0x3e02f05e	0.12787005
1	0x3d5ded63	0.054181468
2	0x3e293c4d	0.16526909
3	0x3d12e3cf	0.035861786
4	0x3c033528	0.008008279
5	0x3cb6d852	0.022319946
6	0xbccee9e6	-0.025258016
7	0xbdea3b87	-0.11437135
8	0x3d80d320	0.06290269
9	0x3db1697f	0.086627
10	0x3e41f8e3	0.18942599
11	0x3e9cf845	0.30658165
12	0x3e532e4d	0.20623131
13	0x3e2e9c00	0.17051697
14	0x3e420234	0.18946153
15	0xbe6c8b7e	-0.23100087
16	0xbc88370f	-0.016627816
17	0x3e103fc4	0.14086825
18	0x3d232f7d	0.03984021
19	0xbe05e242	-0.13074592
20	0x3e1f0668	0.15529788
21	0x3e081ae7	0.13291512
22	0x3e255f1e	0.16149566
23	0x3e277b23	0.16355567
24	0x3c8537e3	0.016262
25	0xbd2316ba	-0.039816596
26	0x3e0e1a48	0.13877213
27	0xbbca912d	-0.006181857
28	0x3d1a9ab0	0.037745178
29	0x3e8555d1	0.26042035
30	0x3cd43158	0.025902435
31	0xbc1abdf3	-0.0094447015
32	0x3d9c7530	0.07639539
33	0x3e514180	0.20435143
34	0x3da5a88b	0.08088788
35	0x3c8b346a	0.016992766
36	0xbd6817c0	-0.056663275
37	0x3d6aab39	0.057292197
38	0x3d143b8d	0.036189605
39	0x3e69e896	0.2284263
40	0x3e2a3812	0.16622952
41	0x00000000	0.0
42	0x3d9adb76	0.0756139
43	0x3d592d82	0.053021915

sequential/dense_3/BiasAdd/ReadVariableOp f4 [22]
0	0xbdbf665f	-0.093456976
1	0x3cc5277e	0.024066683
2	0x3de76975	0.11299411
3	0xbd03ea26	-0.032205723
4	0xbddfeaf4	-0.109334856
5	0xbd3e2e51	-0.04643089
6	0xbd8d931f	-0.06912827
7	0xbd6abdec	-0.05731003
8	0x3e05674f	0.1302769
9	0x3a733060	0.0009276923
10	0x3d97ad4c	0.07406101
11	0x3d7b008b	0.061279815
12	0x3d8955a6	0.06705789
13	0x3c5cc434	0.013474513
14	0x3ce5e313	0.028062379
15	0xbd265074	-0.04060407
16	0xbe2adb7d	-0.1668529
17	0xbaa39255	-0.0012479523
18	0x3d5b0417	0.053470697
19	0x3daaee45	0.083462276
20	0xbe5a1fc4	-0.2130118
21	0x3dc02924	0.09382847

sequential/dense/BiasAdd/ReadVariableOp f4 [44]
0	0x3e68f439	0.22749414
1	0xbc7460cc	-0.014915656
2	0xbdcb4e9e	-0.099271044
3	0x3e8e8c40	0.27841377
4	0x3ea0b0d7	0.31384918
5	0x3e7afeec	0.24511307
6	0x3e9da164	0.30787194
7	0x3e8892ac	0.26674402
8	0x3e594481	0.21217538
9	0x3eaca45f	0.33719155
10	0x3d829eb6	0.06377928
11	0x3e9cee16	0.30650395
12	0x3e000549	0.12502016
13	0x3e76df12	0.24108532
14	0x3e9ed153	0.31019077
15	0x3ecbd929	0.39814118
16	0x3e88e0f1	0.26734117
17	0x3eb50c9d	0.35361186
18	0x3e3ffc80	0.18748665
19	0x3f01b843	0.50671786
20	0x3e1e14e8	0.15437663
21	0x3edb5793	0.4284025
22	0x3ddd3be7	0.10802441
23	0x3e496bd1	0.19670035
24	0x3e639a38	0.22226799
25	0x3ed0398e	0.4066891
26	0x3e403c8f	0.18773101
27	0xbe3b6791	-0.18301226
28	0x3e1ece4e	0.15508386
29	0x3ea3aaf8	0.31966376
30	0xbdca6452	-0.09882416
31	0x3ec3ca8d	0.3824047
32	0x3ed68876	0.41900986
33	0x3e8fc9f4	0.28083766
34	0x3e171290	0.14753175
35	0x3e9c5904	0.30536664
36	0x3ea80657	0.32817337
37	0x3e2c5e4b	0.16832845
38	0x3d7f6178	0.062348813
39	0x3e3b1ea9	0.18273415
40	0x3e2ee656	0.17080054
41	0x3df27702	0.11839105
42	0x3ecaf117	0.39637062
43	0x3ebc60f6	0.36792725

sequential/dense/MatMul f4 [44, 7]
0	0x3ee2c8e9	0.44293907
1	0xbddd207e	-0.10797213
2	0x3e9259fb	0.28584275
3	0xbe28b581	-0.16475488
4	0xbeee4054	-0.46533453
5	0xbe554b7c	-0.20829576
6	0xbee317a5	-0.44353977
7	0xbe2680cc	-0.1626007
8	0x3d8e9f72	0.069640055
9	0x3e2e4aca	0.17020717
10	0x3e71e9e9	0.23624386
11	0xbee2254b	-0.44169077
12	0xbeaa5753	-0.33269748
13	0xbf374327	-0.7158684
14	0x3ed02e56	0.40660352
15	0xbd8e8068	-0.06958085
16	0x3eab28ad	0.3342947
17	0x3d77bd57	0.060483303
18	0xbd88274a	-0.06648119
19	0x3f064208	0.52444506
20	0xbf0ab002	-0.54174817
21	0x3e74a4bf	0.2389097
22	0xbe8756ff	-0.2643356
23	0xbdba9351	-0.091101296
24	0x3eb2edee	0.3494715
25	0xbf1787ca	-0.5919157
26	0x3e9ec5bf	0.31010243
27	0x3e973e1d	0.29539576
28	0xbd91d1a8	-0.07120067
29	0x3ebd11a6	0.36927527
30	0xbf2c4211	-0.6728831
31	0xbd99e447	-0.075142436
32	0x3eeb6b00	0.45980072
33	0xbc594b2a	-0.013262549
34	0x3e65751e	0.22407958
35	0x3ede1a92	0.43379647
36	0x3e628494	0.22120887
37	0xbeb4d285	-0.35316864
38	0x3ebd5f52	0.36986786
39	0x3f025fa6	0.509272
40	0x3e169ffa	0.14709464
41	0x3d945c5d	0.072441794
42	0x3bd1caf4	0.0064023677
43	0xbf2e8af5	-0.6818078
44	0xbf0b93d4	-0.5452244
45	0x3d12b5ad	0.03581779
46	0xbf1b3fc1	-0.60644156
47	0xbca86a3c	-0.020558469
48	0x3e825735	0.2545716
49	0xbe134104	-0.1438027
50	0xbf1f650a	-0.6226355
51	0x3e56a614	0.20961791
52	0x3dac0981	0.0840025
53	0xbedb106a	-0.4278596
54	0x3eab8a3e	0.33503908
55	0xbbf47721	-0.0074604903
56	0xbe0c500a	-0.13702407
57	0xbc00b192	-0.007854836
58	0xbf51a8a0	-0.81897926
59	0xbd707526	-0.05870547
60	0xbee9f587	-0.45695135
61	0x3c843cba	0.016142238
62	0x3f27b3cc	0.65508723
63	0x3e50daf2	0.20396021
64	0x3f3c3d58	0.73531103
65	0xbd9f4477	-0.077767305
66	0x3dac6980	0.0841856
67	0xbe19f3f4	-0.15034467
68	0xbae2ceb3	-0.0017304033
69	0xbf2ab07c	-0.66675544
70	0x3c65f1d7	0.01403471
71	0x3ec124fd	0.37723532
72	0x3e07dd9b	0.1326813
73	0xbef34f0f	-0.47521254
74	0xbdecd235	-0.11563531
75	0x3e8ab05b	0.27087674
76	0xbd3d7331	-0.046252433
77	0xbeef861c	-0.46782005
78	0xbd4b7fb2	-0.049682327
79	0x3d7822be	0.060580008
80	0xbdac05f1	-0.08399571
81	0x3f03b5a0	0.5144901
82	0x3d0cf178	0.03440997
83	0x3efcf9e7	0.4940941
84	0xbf1ced95	-0.6130002
85	0xbefce168	-0.4939072
86	0xbee8a86a	-0.4544099
87	0x3ee9cd39	0.45664385
88	0x3e49cede	0.1970782
89	0xbed821f1	-0.42213395
90	0x3e475cb5	0.19468959
91	0xbe478bce	-0.19486925
92	0xbe4d4b28	-0.20048201
93	0x3f10b16c	0.56520724
94	0x3d9a8ed9	0.07546777
95	0x3f3b5a33	0.7318451
96	0xbce426a8	-0.027850464
97	0x3f18e4f6	0.59724367
98	0x3ef8b3fb	0.48574814
99	0xbe807145	-0.25086418
100	0xbdf58f63	-0.119902395
101	0xbed728fd	-0.4202346
102	0xbf134603	-0.57528704
103	0x3e55b7c9	0.2087089
104	0x3caac13e	0.020844098
105	0x3ed01052	0.4063745
106	0x3ef0e513	0.4704977
107	0xbf143ca1	-0.5790501
108	0x3e7b20a6	0.24524173
109	0x3f0ec73f	0.55772775
110	0x3e77f583	0.24214749
111	0x3e6e850a	0.23292938
112	0xbeb8ca35	-0.36091772
113	0xbef4f117	-0.47840187
114	0xbf1573c5	-0.58379775
115	0xbe62d4da	-0.22151509
116	0x3efba7cb	0.49151453
117	0xbc0288d5	-0.007967194
118	0x3ed3c8c6	0.41364115
119	0x3e132e9c	0.14373249
120	0x3eab848a	0.33499557
121	0xbeeff9ec	-0.46870363
122	0x3ec9b3db	0.3939503
123	0xbf1ae834	-0.60510564
124	0xbe7aee98	-0.24505079
125	0x3ed1e0b4	0.40991747
126	0xbea7153c	-0.32633388
127	0x3f0f9b39	0.56096226
128	0xbe79c2c3	-0.24390702
129	0x3d24ffc4	0.04028298
130	0xbe2b476d	-0.16726466
131	0x3da28e9a	0.07937355
132	0xbf29f53e	-0.66389835
133	0xbed147c6	-0.4087507
134	0x3c70dbe7	0.014700866
135	0xbe2de55e	-0.16982028
136	0x3ebe7431	0.37198022
137	0x3f1ba783	0.6080248
138	0x3ea12acb	0.3147796
139	0xbe00c53c	-0.12575239
140	0xbe590feb	-0.21197478
141	0xbef2d541	-0.47428325
142	0xbe27cdff	-0.16387175
143	0x3d4abc40	0.049495935
144	0xbd97e737	-0.074171476
145	0xbe98391d	-0.29731074
146	0xbf169877	-0.5882639
147	0x3e958a16	0.29206914
148	0x3d9f4d7b	0.0777845
149	0xbd831ff6	-0.064025804
150	0xbe54cef0	-0.20782065
151	0x3e8ef12c	0.27918375
152	0xbe64e75f	-0.22353886
153	0xbec6a116	-0.38794774
154	0x3ee86fee	0.45397896
155	0x3e7c4d09	0.24638762
156	0x3ecf15f0	0.40446424
157	0x3ea97b0c	0.3310169
158	0x3ef7792f	0.48334643
159	0x3a880887	0.0010378518
160	0xbe6982fb	-0.22803871
161	0xbe61c351	-0.22047164
162	0x3ee42c1c	0.44564903
163	0x3ea13ea8	0.31493115
164	0x3d083daa	0.033261932
165	0xbe07552f	-0.13216089
166	0x3da219fb	0.07915112
167	0x3e4eb048	0.20184433
168	0x3ef8f1cc	0.48621976
169	0x3e009abd	0.12559028
170	0x3f135d08	0.5756383
171	0x3ed168a5	0.4090015
172	0x3f2615ec	0.648772
173	0x3d853fa2	0.065062776
174	0x3ec27db3	0.37986526
175	0x3e076108	0.13220608
176	0x3ec37fdd	0.3818349
177	0x3e915042	0.28381544
178	0x3e8b1ffa	0.27172834
179	0xbe4145ca	-0.18874279
180	0x3e5a3b64	0.21311718
181	0x3d35cefd	0.044386853
182	0xbe1f486a	-0.15554968
183	0xbebb3f09	-0.3657153
184	0x3e14848e	0.1450369
185	0xbebf63fd	-0.37380973
186	0xbea92d0f	-0.3304219
187	0x3e072c3b	0.13200466
188	0xbf01063d	-0.50400144
189	0xbeb42ed9	-0.35191992
190	0xbe90bd16	-0.2826926
191	0xbe942551	-0.2893472
192	0x3c91f8b2	0.017818782
193	0xbc9acf4f	-0.01889768
194	0x3f04aff9	0.5183101
195	0x3ed026c5	0.4065458
196	0xbe7a8ef8	-0.24468601
197	0x3e2eee9c	0.1708321
198	0x3ed740b0	0.4204154
199	0xbe601d9e	-0.21886298
200	0x3d10f687	0.035391357
201	0xbe23bb58	-0.15989435
202	0xbeb806ce	-0.35942692
203	0x3ee50bcb	0.4473556
204	0xbf0b9879	-0.5452953
205	0xbf06dc9b	-0.5268037
206	0xbe54b48f	-0.20772003
207	0x3e5958d3	0.2122529
208	0xbc48e2ba	-0.012261087
209	0x3dc3cb1f	0.09560227
210	0xbe8993a2	-0.26870447
211	0xbde884e4	-0.11353472
212	0x3e71565b	0.23568098
213	0xbe515605	-0.2044297
214	0xbefdac93	-0.49545726
215	0xbe813994	-0.2523924
216	0xbe343f8b	-0.17602365
217	0x3d940fa1	0.072295435
218	0x3ce2f1b1	0.027703138
219	0x3e131de6	0.14366874
220	0x3e9e406c	0.30908525
221	0xbeed983d	-0.4640521
222	0x3d806887	0.06269937
223	0x3d5ff0de	0.05467307
224	0xbd10a5d9	-0.035314415
225	0xbec6f7ba	-0.38860875
226	0xbf33241a	-0.6997696
227	0xbefece3e	-0.49766725
228	0xbf1cd3ad	-0.6126049
229	0xbd800aba	-0.06252046
230	0xbddddc33	-0.10833015
231	0x3c8268c6	0.0159191
232	0xbf19849c	-0.5996797
233	0xbe0b9a24	-0.13633019
234	0x3ebceac2	0.36897856
235	0x3f18ea1a	0.5973221
236	0x3e0a73bc	0.13520712
237	0xbe94dd35	-0.29075018
238	0x3e8f967e	0.28044504
239	0x3de62383	0.11237242
240	0xbf58a9a1	-0.84633833
241	0xbf0ecbe1	-0.55779845
242	0xbe1bc50f	-0.1521189
243	0x3e20fb61	0.15720893
244	0x3ea7f50e	0.3280415
245	0xbedd7ad2	-0.43257767
246	0xbeaae7ec	-0.33380067
247	0xbf46ca35	-0.77652293
248	0xbe0f9209	-0.14020552
249	0xbe0964e8	-0.13417399
250	0x3ea71c61	0.3263884
251	0xbee30870	-0.44342375
252	0x3db0dcc4	0.08635858
253	0x3c2b25a3	0.010445985
254	0xbec587cd	-0.3858017
255	0xbefb4161	-0.49073318

sequential/dense_1/MatMul f4 [44, 44]
0	0x3de3ff18	0.1113264
1	0xbde010bf	-0.10940694
2	0xbcd3aa40	-0.025838017
3	0x3d77c188	0.0604873
4	0x3ef339b2	0.47504956
5	0x3eee5624	0.46550095
6	0xbf0504d7	-0.5196051
7	0xbdd8fb13	-0.105947636
8	0xbdbe2ae6	-0.09285526
9	0x3ec55bd5	0.38546625
10	0x3dc1dc4e	0.09465848
11	0xbd865d77	-0.06560796
12	0x3d7c3289	0.06157163
13	0xbdf09cdf	-0.11748671
14	0x3ddd408a	0.108033255
15	0x3e98ab58	0.29818225
16	0x3e9e1f91	0.30883458
17	0x3ca99fc3	0.020706063
18	0x3ea4d9b7	0.32197353
19	0x3ee4e4e5	0.44705883
20	0xbe2436b8	-0.16036499
21	0xbde3e678	-0.11127943
22	0x3e35905a	0.17730847
23	0xbe5afac8	-0.21384728
24	0x3e0d151f	0.13777588
25	0x3ecb1ec1	0.396719
26	0x3c15578d	0.009115112
27	0xbeb2fda0	-0.34959126
28	0xbdf31f19	-0.11871166
29	0xbdaa7260	-0.083225965
30	0x3de4ff20	0.11181474
31	0x3e024342	0.1272097
32	0xbca6cf3f	-0.020362495
33	0x3ccfcf10	0.02536729
34	0x3e17a673	0.14809589
35	0x3dea77cb	0.1144863
36	0x3e845dfc	0.25852954
37	0x3d489576	0.048970662
38	0xbe29ba2f	-0.1657493
39	0x3e401e93	0.18761663
40	0x3dd6fd02	0.10497476
41	0xbe8f97f6	-0.28045624
42	0x3c049041	0.008091033
43	0xbde3557d	-0.1110029
44	0x3e875f21	0.26439765
45	0x3e58cd94	0.21172172
46	0x3dcfbdc8	0.1014362
47	0x3dc27e3f	0.09496736
48	0x3e92a9d0	0.28645182
49	0x3d9689bf	0.07350492
50	0x3eacb7a5	0.3373386
51	0xbdd0d8c5	-0.101975955
52	0x3eab4007	0.33447286
53	0x3d9e4950	0.07728827
54	0x3d50e70d	0.051001597
55	0xbeb640c6	-0.35596293
56	0x3e3753e8	0.17903101
57	0xbeccc1ae	-0.39991516
58	0x3e0d658f	0.13808273
59	0xbcc81bc7	-0.024427308
60	0x3e8f436b	0.27981123
61	0xbb6da2a2	-0.0036260267
62	0xbe811ba7	-0.2521641
63	0xbceb6007	-0.028732313
64	0xbe892005	-0.2678224
65	0x3e8cdf91	0.27514318
66	0x3d7c562b	0.061605614
67	0x3d97debb	0.07415529
68	0xbdbbdff9	-0.09173579
69	0xbd236f84	-0.03990127
70	0xbe9effca	-0.31054527
71	0xbe895309	-0.26821163
72	0x3e645a61	0.22300102
73	0x3d597438	0.05308935
74	0xbe4044f4	-0.18776304
75	0x3e8c84f7	0.27445194
76	0x3e5351ef	0.20636724
77	0xbea7c384	-0.32766354
78	0xbc53a78c	-0.012918364
79	0x3e625391	0.2210219
80	0x3e898b4e	0.26864094
81	0xbe492180	-0.19641685
82	0x3e37eea1	0.17962123
83	0xbea73434	-0.32657015
84	0x3e8e2d4b	0.2776893
85	0x3ebaf83c	0.36517513
86	0x3dddd3b9	0.108313985
87	0x3e87be46	0.26512355
88	0x3d724962	0.059152015
89	0xbe4683a8	-0.1938616
90	0xbee5fcd8	-0.44919467
91	0x3e5e5ea4	0.2171579
92	0x3e6604df	0.22462796
93	0x3e90e8c7	0.28302595
94	0x3ef60d52	0.48057038
95	0x3deea650	0.11652815
96	0x3ddec3d8	0.10877198
97	0xbd984b0b	-0.07436188
98	0xbedd1515	-0.43180147
99	0xbe9dd89f	-0.3082933
100	0xbe0fb0ec	-0.14032334
101	0xbe858d0a	-0.26084167
102	0x3d69c096	0.05706843
103	0x3dcd829e	0.10034679
104	0x3e88d22b	0.26722845
105	0x3e858f5c	0.26085937
106	0x3e597807	0.21237193
107	0xbe60f265	-0.21967466
108	0xbdcf60e5	-0.10125903
109	0xbd414a72	-0.047190137
110	0x3e32f2df	0.1747546
111	0x3e0433e6	0.12910423
112	0xbd53d13a	-0.051713206
113	0x3d9f00c3	0.07763817
114	0xbd55191e	-0.052025907
115	0xbedd473d	-0.43218413
116	0xbeb44ce0	-0.352149
117	0x3ec1b36a	0.37832195
118	0xbd6e3f58	-0.058165878
119	0x3eb419bf	0.35175893
120	0x3dd76f00	0.105192184
121	0x3d5c972e	0.053855114
122	0x3dbef5d9	0.093242355
123	0xbcdc4d93	-0.026892459
124	0x3d507495	0.05089243
125	0x3d1b61da	0.037935115
126	0xbe6ba905	-0.23013695
127	0xbca06373	-0.019578671
128	0xbe92cae5	-0.2867042
129	0xbe93cec7	-0.28868696
130	0xbe0620c3	-0.13098435
131	0xbe7874ff	-0.2426338
132	0xbe4b6606	-0.19863138
133	0xbd7ab8d1	-0.06121141
134	0xbd29ca7b	-0.041452866
135	0x3dde17c7	0.10844379
136	0x3e3ff544	0.18745905
137	0x3bab624d	0.005230224
138	0x3c44edf4	0.012019623
139	0xbe0b131b	-0.13581507
140	0x3f03210f	0.5122232
141	0xbcafe4d9	-0.021471428
142	0x3e0df849	0.13864245
143	0x3ec7cf8a	0.39025527
144	0x3eab69c4	0.3347913
145	0x3e948a6b	0.29011855
146	0x3d414398	0.047183603
147	0x3e407758	0.18795526
148	0x3ef114f5	0.470863
149	0x3dd060e7	0.10174733
150	0xbdfde372	-0.123968974
151	0x3e3dbbab	0.18528621
152	0x3e89505c	0.26819122
153	0xbe1695b8	-0.1470555
154	0xbe92ebb8	-0.28695464
155	0xbc9c34ed	-0.019068206
156	0x3d0c42f9	0.034243558
157	0xbd6c0eb9	-0.057631228
158	0xbe5e4d6c	-0.21709222
159	0x3edb07c4	0.42779362
160	0xbc583307	-0.01319576
161	0xbc07035d	-0.008240548
162	0xbd4d1ac0	-0.05007434
163	0xbd5d938b	-0.054095786
164	0xbd985db3	-0.07439747
165	0x3dcc1887	0.09965616
166	0xbdc74b2d	-0.097311355
167	0x3e3575f2	0.17720774
168	0xbde24e3a	-0.11050077
169	0x3e98779a	0.2977875
170	0x3e05772d	0.13033743
171	0xbddbb505	-0.10727886
172	0xbde4f196	-0.11178891
173	0x3cebf16a	0.028801639
174	0x3e60e875	0.21963675
175	0xbe0b0cbe	-0.1357908
176	0x3e8d9b3f	0.27657506
177	0xbe789b98	-0.24278104
178	0x3df10336	0.117681906
179	0x3c5b5357	0.013386569
180	0xbe5e2c17	-0.21696506
181	0x3e462689	0.19350637
182	0xbcea2167	-0.02858038
183	0xbde9fcb1	-0.1142515
184	0x3d44a08d	0.048004676
185	0x3e37d40a	0.1795198
186	0xbe5aa1b0	-0.21350741
187	0x3c7155db	0.014729942
188	0xbea9bf44	-0.33153737
189	0xbe20dcf4	-0.15709287
190	0x3e197cff	0.14989088
191	0x3ede51d5	0.43421808
192	0xbeac66f1	-0.33672288
193	0x3ed8987b	0.42303833
194	0xbe62ffa7	-0.22167836
195	0xbf050100	-0.5195465
196	0x3e326c72	0.17424181
197	0x3db701d5	0.08935896
198	0x3ed91ace	0.42403263
199	0xbdedf3da	-0.116187766
200	0x3ed2ff7a	0.41210538
201	0xbda969a5	-0.08272103
202	0x3e8f8a9b	0.28035435
203	0xbeedfa9e	-0.46480268
204	0xbdfb5805	-0.12272648
205	0x3ec6c311	0.388207
206	0x3e4c303b	0.19940273
207	0xbe85fee3	-0.26171026
208	0xbe27ca89	-0.16385855
209	0x3e50bce2	0.20384553
210	0x3dc3fa56	0.09569232
211	0xbba59849	-0.005053554
212	0x3dc238b1	0.09483469
213	0x3de0cf63	0.10977056
214	0x3e243847	0.16037093
215	0x3e3c3f2a	0.1838347
216	0x3ed6d369	0.41958168
217	0x3e7d8562	0.24757913
218	0xbed80b02	-0.42195898
219	0x3ee75410	0.45181322
220	0xbe4c9df5	-0.19982131
221	0xbe8dc7ed	-0.27691594
222	0xbdc90e01	-0.09817124
223	0xbdc809be	-0.09767483
224	0x3ef8d56a	0.48600322
225	0x3cc9c2cf	0.024629025
226	0x3dedbc53	0.116081856
227	0xbe8cfc93	-0.2753645
228	0x3e488f43	0.195859
229	0xbc0303d8	-0.007996522
230	0xbd1ef325	-0.0388061
231	0x3f0aa635	0.5415986
232	0x3ea21fea	0.31664973
233	0x3f11353b	0.5672185
234	0xbe360011	-0.17773463
235	0x3d1ec74d	0.038764287
236	0x3df42940	0.1192193
237	0x3e8556e2	0.2604285
238	0xbe37281c	-0.17886394
239	0x3d48b89d	0.049004186
240	0xbe5d024b	-0.21582906
241	0x3ed90e83	0.42393884
242	0x3f01eabc	0.507488
243	0x3e9e9e74	0.30980265
244	0x3e95ed23	0.29282483
245	0x3e8e2366	0.27761382
246	0x3ce79cb9	0.028272973
247	0x3dfd6d8a	0.123744085
248	0x3cfb5aa4	0.03068287
249	0x3eb97b0c	0.3622669
250	0xbe3549cc	-0.17703933
251	0x3d9f8ad3	0.077901505
252	0x3df2b689	0.11851222
253	0xbd3c2cbb	-0.045941096
254	0x3c5edca5	0.01360241
255	0xbd62a66b	-0.05533449

sequential/dense_2/MatMul f4 [44, 44]
0	0xbd15a5dc	-0.03653513
1	0x3c672722	0.014108451
2	0x3e52c271	0.20581986
3	0xbb9a2335	-0.004703904
4	0x3e644c73	0.22294788
5	0xbb09cac1	-0.0021025392
6	0xbe93b6f4	-0.2885052
7	0x3ea24c9d	0.31699076
8	0x3e890360	0.26760387
9	0xbecc9ab6	-0.39961785
10	0x3e1bcc48	0.15214646
11	0x3ef2c6f5	0.47417417
12	0x3e1b0c1b	0.15141337
13	0x3ecc0cd3	0.39853534
14	0x3e232f74	0.1593607
15	0xbe33bb86	-0.17552003
16	0xbe638d53	-0.2222188
17	0xbef8f7b8	-0.48626494
18	0x3ec0cea9	0.3765767
19	0xbe7f5153	-0.24933366
20	0x3e3a9461	0.18220665
21	0x3b06c18e	0.0020562145
22	0x3edf77f5	0.43646207
23	0x3e44b449	0.19209398
24	0xbdbae71a	-0.091261104
25	0x3d77ebc8	0.060527593
26	0x3e020e09	0.12700666
27	0xbe0a0e69	-0.1348206
28	0x3ba86e42	0.005140097
29	0xbdafdba5	-0.08586816
30	0x3e7cdea4	0.24694306
31	0xbebb1618	-0.36540294
32	0xbe14e7b2	-0.1454151
33	0x3e04e23e	0.1297693
34	0x3d56ee31	0.05247325
35	0x3e79219b	0.24329226
36	0xbd992e1b	-0.07479497
37	0x3edec042	0.43506056
38	0x3dc13bbc	0.094352216
39	0x3de51f8f	0.1118766
40	0xbef9eb1d	-0.4881219
41	0x3ec9e974	0.39435923
42	0x3b415071	0.002949741
43	0x3e365b4d	0.17808266
44	0xbde211c5	-0.110385455
45	0xbccc5179	-0.024941193
46	0x3e254be4	0.16142231
47	0x3d2674dc	0.04063879
48	0xbbc3701a	-0.0059642913
49	0xbe8a1d6d	-0.26975575
50	0xbdd0b96b	-0.10191616
51	0xbd0c114f	-0.034196194
52	0xbe21f47d	-0.15815921
53	0x3ed18083	0.4091836
54	0x3f080170	0.53127193
55	0x3e2629b6	0.16226849
56	0x3f10ecc4	0.56611276
57	0xbf1a7d12	-0.6034709
58	0xbe04523e	-0.12921998
59	0x3e883576	0.26603287
60	0xbc98ac17	-0.018636746
61	0x3e858c84	0.26083767
62	0x3edb45c0	0.42826653
63	0x3e373c33	0.17894058
64	0x3db60d21	0.08889223
65	0x3bd119e6	0.006381261
66	0xbd2bd020	-0.04194653
67	0xbe1e4c17	-0.15458713
68	0xbcafeeb9	-0.021476137
69	0x3db82fa0	0.08993459
70	0xbe1a53a6	-0.15070972
71	0x3df3e3ca	0.11908682
72	0x3e86f716	0.26360387
73	0x3ec9e567	0.39432833
74	0xbe53d2bf	-0.20685862
75	0x3ea748d3	0.32672748
76	0xbe96c61f	-0.2944803
77	0xbe30b724	-0.17257363
78	0xbf197823	-0.5994894
79	0x3e9f6546	0.31131953
80	0x3e06d69f	0.13167809
81	0x3d90974c	0.070601076
82	0x3e11cdce	0.14238665
83	0xbda4085b	-0.08009406
84	0x3e5f1775	0.21786292
85	0x3e7302c0	0.23731518
86	0x3ecce354	0.40017188
87	0xbf1f703f	-0.6228065
88	0xbe1b4100	-0.15161514
89	0x3ecde13d	0.40210906
90	0x3f43373a	0.76256144
91	0xbe511e7e	-0.20421788
92	0x3dd24fca	0.10269125
93	0xbb86ac14	-0.004109869
94	0x3ec54610	0.38530016
95	0x3eaa70a2	0.33289057
96	0xbe396bb5	-0.18107493
97	0x3ea99a88	0.3312571
98	0xbddc0fcb	-0.107452
99	0xbece419e	-0.40284437
100	0x3e5c6ea1	0.21526577
101	0xbc88018a	-0.016602296
102	0x3df29681	0.118451126
103	0x3ee8f609	0.4550021
104	0xbded552f	-0.11588513
105	0xbd5d8c2a	-0.05408875
106	0x3d52a29c	0.051424608
107	0x3e13f37f	0.14448355
108	0x3e018cd7	0.12651382
109	0x3b136aed	0.0022494153
110	0x3e0525ce	0.13002703
111	0x3de1fc41	0.11034442
112	0x3e19d99c	0.15024418
113	0x3e775cde	0.2415652
114	0x3dd92a65	0.10603789
115	0xbe22c527	-0.1589552
116	0x3edefa20	0.43550205
117	0x3d820772	0.06349076
118	0xbe972b9b	-0.29525456
119	0xbea80249	-0.32814243
120	0xbea5645c	-0.3230313
121	0xbdbf3c96	-0.09337728
122	0xbeadd6d9	-0.33952978
123	0xbdffc6e3	-0.124891065
124	0x3e9380d5	0.2880923
125	0x3e52dde1	0.20592453
126	0xbd9adcf4	-0.07561675
127	0xbe258a9f	-0.16166161
128	0x3e666025	0.22497614
129	0xbd2216c7	-0.039572503
130	0xbc638af6	-0.013888111
131	0xbd00166d	-0.031271387
132	0xbddb65ec	-0.107127994
133	0x39ee36b4	0.00045435654
134	0x3dbba9d8	0.091632545
135	0x3e9b9f9a	0.30395204
136	0xbe95d5ab	-0.29264578
137	0x3e30097e	0.17191121
138	0xbdf205c0	-0.11817503
139	0x3de1152f	0.109903686
140	0xbe701594	-0.23445731
141	0x3e2f3692	0.1711066
142	0xbed25ba7	-0.4108555
143	0xbe24689e	-0.16055533
144	0x3e71b4b9	0.23604096
145	0xbd92d769	-0.071699925
146	0xbd190378	-0.037356824
147	0xbe102b6c	-0.14079064
148	0xbe3375da	-0.17525426
149	0x3e242f85	0.16033752
150	0x3e230e09	0.15923323
151	0x3e8550b1	0.26038125
152	0xbe1c20cf	-0.1524689
153	0x3e6c4236	0.23072132
154	0xbee94c03	-0.45565805
155	0x3e76fca1	0.24119808
156	0x3e977bab	0.2958654
157	0xbe3422b1	-0.17591359
158	0xbdd47e1c	-0.10375616
159	0x3eb5d6c1	0.35515407
160	0xbdcae3a5	-0.09906701
161	0x3e80c648	0.25151277
162	0x3e3f485d	0.18679948
163	0xbe054cc3	-0.13017564
164	0x3e9c0d47	0.3047888
165	0xbe45c2d0	-0.19312596
166	0xbe8cdda8	-0.2751286
167	0x3ebf884a	0.37408668
168	0x3e566f7c	0.20940965
169	0x3f02bdfc	0.51071143
170	0xbbb18900	-0.005417943
171	0x3cecf64d	0.02892604
172	0x3e82f3f5	0.2557675
173	0x3ea4d5d0	0.32194376
174	0x3e320737	0.17385565
175	0x3e9f5f38	0.31127334
176	0xbe227113	-0.15863447
177	0x3e94e4d4	0.29080832
178	0x3d31969f	0.043356534
179	0x3e958936	0.29206246
180	0x3e7a2df6	0.24431595
181	0xbe5fd210	-0.21857476
182	0xbd8a53b2	-0.06754245
183	0x3dcc0f4a	0.09963854
184	0xbe8609e7	-0.2617943
185	0xbe39f317	-0.18159138
186	0xbe111481	-0.14167978
187	0x3e6d20ef	0.23157094
188	0x3d4f6bb2	0.050639816
189	0x3efd4ace	0.49471134
190	0x3ec7bb9c	0.39010322
191	0x3e9c260c	0.30497777
192	0x3e19b66a	0.15010992
193	0xbe8a3b2e	-0.26998276
194	0xbccee7b7	-0.025256975
195	0x3eaa9bd0	0.33322
196	0x3e2049cb	0.1565315
197	0x3ea857ee	0.32879585
198	0x3e6d469d	0.23171468
199	0xbe046c7c	-0.12932009
200	0x3e01ef4a	0.12688938
201	0xbe671419	-0.2256626
202	0xbdad0a23	-0.08449199
203	0xbdde9fc2	-0.10870315
204	0xbd98c37b	-0.0745916
205	0x3ef52e56	0.47886914
206	0xbdce4d69	-0.100733586
207	0x3e5d39dc	0.21604103
208	0xbd7c749c	-0.061634645
209	0x3e9ef103	0.31043252
210	0xbe49a937	-0.19693457
211	0xbeb81f39	-0.3596132
212	0x3ed15ecb	0.40892634
213	0xbe975091	-0.29553655
214	0x3e99ed78	0.30063987
215	0x3f1af63e	0.60531986
216	0x3daccdbd	0.08437679
217	0x3e5d7f0c	0.21630496
218	0xbebe80c3	-0.37207612
219	0x3c310934	0.010805417
220	0xbdb48db0	-0.08816087
221	0xbe946406	-0.28982562
222	0xbe41007e	-0.18847844
223	0x3e921a80	0.28535843
224	0xbe147215	-0.14496644
225	0x3e82081d	0.25396815
226	0xbe6a47cd	-0.22878952
227	0xbe9ebfd4	-0.31005728
228	0x3d947d1b	0.072504245
229	0xbd054539	-0.03253672
230	0xbddd4f7b	-0.10806175
231	0x3dfc78e6	0.12327747
232	0xbdd9f9b3	-0.106433295
233	0x3c1f53b9	0.009724551
234	0x3e6c6701	0.23086168
235	0x3e1a88f0	0.150913
236	0x3dda10f4	0.10647765
237	0xb809fd88	-3.2899465e-05
238	0x3b38a1b1	0.0028172547
239	0x3e8ea770	0.2786212
240	0x3ea5b488	0.32364297
241	0xbedfa97a	-0.43683988
242	0xbe649b9d	-0.22324987
243	0x3dd5b1ef	0.10434329
244	0xbe015851	-0.12631346
245	0xbdb924b5	-0.090402044
246	0x3d628256	0.05530008
247	0x3e5f3799	0.21798553
248	0x3ddc1003	0.107452415
249	0x3e8e7b3a	0.2782839
250	0x3de8ad95	0.11361233
251	0x3ea3f15b	0.32020077
252	0x3e8cece8	0.27524495
253	0xbde32ef7	-0.11092942
254	0x3e542a7f	0.20719336
255	0xbe826ca4	-0.2547351

sequential/dense_3/MatMul f4 [22, 44]
0	0x3ea0171e	0.31267637
1	0xbda6f583	-0.081522964
2	0xbeee1a53	-0.4650446
3	0x3e48cc7d	0.19609256
4	0xbef660f0	-0.48120832
5	0xbea2d6f1	-0.31804612
6	0x3e8aeda4	0.2713443
7	0x3e90cc17	0.28280708
8	0xbee73d93	-0.45164165
9	0x3eaf345b	0.34219632
10	0xbd24052c	-0.040043995
11	0x3b646abe	0.0034853662
12	0xbea79a38	-0.32734847
13	0xbec81667	-0.39079592
14	0xbeda2c6d	-0.4261202
15	0xbd1c1833	-0.038109016
16	0x3e8d8b6c	0.27645433
17	0x3cf39c9d	0.029737765
18	0xbe479f49	-0.19494356
19	0x3e4b0aa7	0.19828282
20	0xbdbbba3f	-0.09166383
21	0xbee3d4bd	-0.44498244
22	0x3bc274f7	0.0059343535
23	0xbea1ab45	-0.3157598
24	0xbe37dd88	-0.17955601
25	0x3e00b0b0	0.12567401
26	0xbf3b19e4	-0.7308638
27	0x3e7de75e	0.24795291
28	0xbd83ae63	-0.06429746
29	0xbe43e22f	-0.19129251
30	0x3c891c57	0.016737146
31	0xbe837dfa	-0.2568205
32	0x3ebe43fa	0.37161237
33	0x3e7b4525	0.24538095
34	0x3d2f20b6	0.042755805
35	0x3cbf8d9a	0.02338295
36	0x3e2545c1	0.1613989
37	0xbf1f8521	-0.62312514
38	0x3ce130f1	0.027489157
39	0xbe8e3edb	-0.2778233
40	0x3dc44927	0.09584265
41	0x3e8aea06	0.2713167
42	0x3d568353	0.052371334
43	0xbb86d07f	-0.00411421
44	0x3edeb7b2	0.43499523
45	0x3dbb6a4f	0.09151136
46	0xbe0c3a76	-0.13694176
47	0x3db25191	0.08706964
48	0xbd341364	-0.043963805
49	0xbd7f3ad5	-0.062311966
50	0x3e12db69	0.14341511
51	0x3e5431eb	0.20722167
52	0xbf15951f	-0.58430666
53	0xbebc47da	-0.36773568
54	0xbe2c02bd	-0.1679792
55	0xbec1f3d9	-0.37881353
56	0x3ec37da1	0.38181785
57	0xbd83d795	-0.064376034
58	0x3e8e0592	0.27738625
59	0xbe017fc3	-0.12646393
60	0xbe8ce308	-0.2751696
61	0xbe04a41b	-0.12953226
62	0x3e37aeda	0.17937794
63	0xbccebf61	-0.025237741
64	0xbed3390f	-0.4125447
65	0xbf182a2e	-0.5943936
66	0x3e8f6ecd	0.28014222
67	0xbef1acfd	-0.47202292
68	0xbdd22481	-0.10260869
69	0x3e409793	0.18807821
70	0xbf085b68	-0.53264475
71	0x3eae86e6	0.34087294
72	0xbefee51b	-0.4978417
73	0x3e34d568	0.17659533
74	0x3b34eb7b	0.0027606178
75	0xbeef5865	-0.46747127
76	0x3e108b19	0.14115562
77	0x3e38115c	0.17975372
78	0xbebe919a	-0.3722046
79	0x3d58dbcf	0.052944
80	0x3ec7aa0b	0.3899692
81	0xbf11aa6f	-0.56900686
82	0x3e5859f1	0.2112806
83	0xbeb2403d	-0.34814635
84	0x3e28547d	0.1643848
85	0x3e781400	0.2422638
86	0x3e968b31	0.2940307
87	0xbdc08e56	-0.094021484
88	0xbdab2ce7	-0.08358174
89	0x3d0b6d7c	0.03403996
90	0x3e51313f	0.20428942
91	0x3cbff11f	0.023430405
92	0x3af4d79a	0.0018679977
93	0xbba6febe	-0.0050962856
94	0xbec22aac	-0.3792318
95	0xbf2c2ba5	-0.67254096
96	0x3e9430fd	0.28943625
97	0x3df4a87b	0.119461976
98	0x3ca4e14d	0.020126963
99	0x3dee9851	0.11650146
100	0xbda8a882	-0.08235265
101	0x3d4b1861	0.049583796
102	0x3e9ebcfd	0.31003562
103	0xbe4c4b1b	-0.19950525
104	0xbdf44149	-0.11926515
105	0x3ec06d55	0.37583414
106	0x3e5bdd3a	0.2147111
107	0xbe7c05aa	-0.24611536
108	0xbd00bc46	-0.03142955
109	0xbecb9a6a	-0.39766246
110	0xbe2159f0	-0.15756965
111	0x3e3b3b90	0.1828444
112	0xbe108caa	-0.14116159
113	0xbe7000c0	-0.23437786
114	0x3cc8084d	0.02441802
115	0xbe2a132f	-0.1660888
116	0x3e418ffe	0.18902585
117	0x3ecb7438	0.39737105
118	0x3def8af4	0.11696425
119	0xbf046483	-0.5171587
120	0xbbe11b8b	-0.0068697385
121	0xbd140462	-0.036136992
122	0xbd5f3093	-0.054489683
123	0x3dd60f22	0.10452105
124	0xbcfc70a9	-0.03081544
125	0xbe854e4b	-0.26036295
126	0xbf0a3c4b	-0.5399825
127	0x3cef0cdf	0.029180942
128	0xbe9f38d5	-0.31098047
129	0xbdcc9a7a	-0.099904016
130	0xbe244b83	-0.1604443
131	0xbeccfe8d	-0.40037957
132	0xbddbe168	-0.10736352
133	0xbea6ff41	-0.32616618
134	0x3d65a981	0.056069855
135	0x3c974fc5	0.018470654
136	0x3d147096	0.036240183
137	0xbe4b330b	-0.1984369
138	0xbd4aa1d3	-0.049470734
139	0xbe07a563	-0.13246684
140	0xbf2c73ec	-0.6736438
141	0xbf0e5891	-0.5560389
142	0x3eb0d2d1	0.3453584
143	0xbe90139a	-0.28139955
144	0xbe6a69cc	-0.22891921
145	0xbef14554	-0.47123206
146	0xbeaf32f8	-0.34218574
147	0x3e6139b8	0.21994674
148	0x3e831eb1	0.25609353
149	0xbe8d0e05	-0.2754976
150	0xbf1174da	-0.56818926
151	0x3e80065e	0.25004858
152	0xbe86c3ea	-0.26321346
153	0x3ece0f51	0.4024606
154	0xbc61eeaf	-0.013789817
155	0x3ea9154b	0.33024058
156	0xbe9f6e16	-0.31138676
157	0x3e06e58b	0.13173501
158	0x3ec5ec8d	0.38657036
159	0xbea5a387	-0.32351324
160	0xbdaf73cd	-0.08567009
161	0xbe03011a	-0.12793389
162	0xbeb6dc0c	-0.35714757
163	0xbee48142	-0.44629866
164	0xbf27bf64	-0.65526414
165	0xbd94bdba	-0.0726275
166	0xbe42dfe5	-0.19030721
167	0xbcdb49bf	-0.026768563
168	0xbe594435	-0.21217425
169	0xbe2cd977	-0.16879831
170	0xbf009b93	-0.5023739
171	0xbea53642	-0.32267958
172	0xbee03c26	-0.4379589
173	0xbe1e9061	-0.15484764
174	0x3ebf9181	0.37415698
175	0xbbdc69dd	-0.006726487
176	0xbee8d382	-0.45473868
177	0xbe3c6327	-0.18397199
178	0xbe93bc30	-0.28854513
179	0x3f03882a	0.51379645
180	0xbeb0f3f8	-0.34561133
181	0x3e4b3167	0.19843064
182	0x3ca16333	0.019700622
183	0x3ebb8de0	0.3663168
184	0xbc4c4c3b	-0.012469347
185	0x3d854e41	0.065090664
186	0xbe94f1d1	-0.2909074
187	0x3e662806	0.22476205
188	0xbefb5a02	-0.49092108
189	0xbe576a06	-0.21036538
190	0xbe49c607	-0.19704448
191	0xbe87cfbb	-0.26525673
192	0xbef4b4ec	-0.47794282
193	0xbe1968b5	-0.14981349
194	0x3e80913f	0.25110814
195	0xbe38d105	-0.18048485
196	0x3e9cd917	0.30634376
197	0x3ec2f0f4	0.38074458
198	0xbdf25b98	-0.11833876
199	0xbf0faf18	-0.56126547
200	0x3e397d46	0.18114194
201	0x3c0ca6f7	0.008584729
202	0xbeed19a1	-0.46308616
203	0x3e0b93cc	0.13630599
204	0xbe2024c8	-0.15639031
205	0xbf1786ba	-0.5918995
206	0x3e66c040	0.22534275
207	0x3ea5eb47	0.32406065
208	0xbeb455fa	-0.35221845
209	0xbf13fa5d	-0.578039
210	0xbc0d93ca	-0.008641193
211	0x3ebd3aa4	0.36958802
212	0x3e3eea46	0.18644056
213	0xbe4ec88a	-0.20193687
214	0xbec51efa	-0.38500196
215	0x3da97bf3	0.082755946
216	0xbccf505a	-0.02530687
217	0x3cc52890	0.024067193
218	0xbf630a95	-0.8868802
219	0xba9e6d11	-0.0012086948
220	0xbc81447e	-0.01577973
221	0xbf15075e	-0.58214366
222	0x3e70562d	0.23470373
223	0x3e31cef6	0.17364106
224	0x3ed54400	0.41653442
225	0xbec1f59b	-0.37882695
226	0x3de26987	0.11055284
227	0x3ef47750	0.47747278
228	0xbdb55cce	-0.08855592
229	0xbe215e47	-0.1575862
230	0x3e08a1d3	0.13342981
231	0xbf4264f1	-0.75935274
232	0xbd1f9486	-0.038960002
233	0xbee94666	-0.45561522
234	0x3e4ee405	0.2020417
235	0xbd54eef1	-0.051985685
236	0x3e7179df	0.23581646
237	0xbdc0c72c	-0.09412989
238	0xbf2c4a70	-0.6730108
239	0x3e406ad5	0.18790753
240	0x3e45f155	0.19330342
241	0xbda73d62	-0.08166005
242	0xbf14094c	-0.57826686
243	0xbe92cb12	-0.28670555
244	0xbedeb0a4	-0.4349414
245	0xbe7bf4ff	-0.24605177
246	0x3e9c9115	0.3057944
247	0xbe88e629	-0.26738098
248	0xbeb6083c	-0.35553157
249	0x3e8a9f50	0.2707467
250	0x3dc80bc3	0.09767868
251	0x3e4bccb4	0.19902307
252	0xbe40c078	-0.18823421
253	0xbef58b92	-0.47958046
254	0xbf1bcff9	-0.60864216
255	0xbf03e1e8	-0.5151658
